…
Loading checkpoint shards:   0%|          | 0/3 [00:00<?, ?it/s]Loading checkpoint shards:   0%|          | 0/3 [00:00<?, ?it/s]Loading checkpoint shards:  33%|███▎      | 1/3 [00:03<00:07,  3.92s/it]Loading checkpoint shards:  33%|███▎      | 1/3 [00:03<00:07,  3.78s/it]Loading checkpoint shards:  67%|██████▋   | 2/3 [00:07<00:03,  3.98s/it]Loading checkpoint shards:  67%|██████▋   | 2/3 [00:07<00:03,  3.91s/it]Loading checkpoint shards: 100%|██████████| 3/3 [00:11<00:00,  3.74s/it]Loading checkpoint shards: 100%|██████████| 3/3 [00:11<00:00,  3.80s/it]
LlavaLlamaModel(
  (embed_tokens): Embedding(32000, 4096, padding_idx=0)
  (layers): ModuleList(
    (0-31): 32 x LlamaDecoderLayer(
      (self_attn): LlamaAttention(
        (q_proj): Linear(in_features=4096, out_features=4096, bias=False)
        (k_proj): Linear(in_features=4096, out_features=4096, bias=False)
        (v_proj): Linear(in_features=4096, out_features=4096, bias=False)
        (o_proj): Linear(in_features=4096, out_features=4096, bias=False)
      )
      (mlp): LlamaMLP(
        (gate_proj): Linear(in_features=4096, out_features=11008, bias=False)
        (up_proj): Linear(in_features=4096, out_features=11008, bias=False)
        (down_proj): Linear(in_features=11008, out_features=4096, bias=False)
        (act_fn): SiLU()
      )
      (input_layernorm): LlamaRMSNorm((4096,), eps=1e-05)
      (post_attention_layernorm): LlamaRMSNorm((4096,), eps=1e-05)
    )
  )
  (norm): LlamaRMSNorm((4096,), eps=1e-05)
  (rotary_emb): LlamaRotaryEmbedding()
  (vision_tower): CLIPVisionTower(
    (vision_tower): CLIPVisionModel(
      (vision_model): CLIPVisionTransformer(
        (embeddings): CLIPVisionEmbeddings(
          (patch_embedding): Conv2d(3, 1024, kernel_size=(14, 14), stride=(14, 14), bias=False)
          (position_embedding): Embedding(577, 1024)
        )
        (pre_layrnorm): LayerNorm((1024,), eps=1e-05, elementwise_affine=True)
        (encoder): CLIPEncoder(
          (layers): ModuleList(
            (0-23): 24 x CLIPEncoderLayer(
              (self_attn): CLIPSdpaAttention(
                (k_proj): Linear(in_features=1024, out_features=1024, bias=True)
                (v_proj): Linear(in_features=1024, out_features=1024, bias=True)
                (q_proj): Linear(in_features=1024, out_features=1024, bias=True)
                (out_proj): Linear(in_features=1024, out_features=1024, bias=True)
              )
              (layer_norm1): LayerNorm((1024,), eps=1e-05, elementwise_affine=True)
              (mlp): CLIPMLP(
                (activation_fn): QuickGELUActivation()
                (fc1): Linear(in_features=1024, out_features=4096, bias=True)
                (fc2): Linear(in_features=4096, out_features=1024, bias=True)
              )
              (layer_norm2): LayerNorm((1024,), eps=1e-05, elementwise_affine=True)
            )
          )
        )
        (post_layernorm): LayerNorm((1024,), eps=1e-05, elementwise_affine=True)
      )
    )
  )
  (downsampled_vision_towers): ModuleDict()
  (vision_resampler): IdentityMap()
  (mm_projector): Sequential(
    (0): Linear(in_features=1024, out_features=4096, bias=True)
    (1): GELU(approximate='none')
    (2): Linear(in_features=4096, out_features=4096, bias=True)
  )
)
change positional embedding to bilinear_interpolation
Loading checkpoint shards: 100%|██████████| 3/3 [00:11<00:00,  3.86s/it]Loading checkpoint shards: 100%|██████████| 3/3 [00:11<00:00,  3.86s/it]
LlavaLlamaModel(
  (embed_tokens): Embedding(32000, 4096, padding_idx=0)
  (layers): ModuleList(
    (0-31): 32 x LlamaDecoderLayer(
      (self_attn): LlamaAttention(
        (q_proj): Linear(in_features=4096, out_features=4096, bias=False)
        (k_proj): Linear(in_features=4096, out_features=4096, bias=False)
        (v_proj): Linear(in_features=4096, out_features=4096, bias=False)
        (o_proj): Linear(in_features=4096, out_features=4096, bias=False)
      )
      (mlp): LlamaMLP(
        (gate_proj): Linear(in_features=4096, out_features=11008, bias=False)
        (up_proj): Linear(in_features=4096, out_features=11008, bias=False)
        (down_proj): Linear(in_features=11008, out_features=4096, bias=False)
        (act_fn): SiLU()
      )
      (input_layernorm): LlamaRMSNorm((4096,), eps=1e-05)
      (post_attention_layernorm): LlamaRMSNorm((4096,), eps=1e-05)
    )
  )
  (norm): LlamaRMSNorm((4096,), eps=1e-05)
  (rotary_emb): LlamaRotaryEmbedding()
  (vision_tower): CLIPVisionTower(
    (vision_tower): CLIPVisionModel(
      (vision_model): CLIPVisionTransformer(
        (embeddings): CLIPVisionEmbeddings(
          (patch_embedding): Conv2d(3, 1024, kernel_size=(14, 14), stride=(14, 14), bias=False)
          (position_embedding): Embedding(577, 1024)
        )
        (pre_layrnorm): LayerNorm((1024,), eps=1e-05, elementwise_affine=True)
        (encoder): CLIPEncoder(
          (layers): ModuleList(
            (0-23): 24 x CLIPEncoderLayer(
              (self_attn): CLIPSdpaAttention(
                (k_proj): Linear(in_features=1024, out_features=1024, bias=True)
                (v_proj): Linear(in_features=1024, out_features=1024, bias=True)
                (q_proj): Linear(in_features=1024, out_features=1024, bias=True)
                (out_proj): Linear(in_features=1024, out_features=1024, bias=True)
              )
              (layer_norm1): LayerNorm((1024,), eps=1e-05, elementwise_affine=True)
              (mlp): CLIPMLP(
                (activation_fn): QuickGELUActivation()
                (fc1): Linear(in_features=1024, out_features=4096, bias=True)
                (fc2): Linear(in_features=4096, out_features=1024, bias=True)
              )
              (layer_norm2): LayerNorm((1024,), eps=1e-05, elementwise_affine=True)
            )
          )
        )
        (post_layernorm): LayerNorm((1024,), eps=1e-05, elementwise_affine=True)
      )
    )
  )
  (downsampled_vision_towers): ModuleDict()
  (vision_resampler): IdentityMap()
  (mm_projector): Sequential(
    (0): Linear(in_features=1024, out_features=4096, bias=True)
    (1): GELU(approximate='none')
    (2): Linear(in_features=4096, out_features=4096, bias=True)
  )
)
change positional embedding to bilinear_interpolation
Bilienar interpolation embedding type.
Bilienar interpolation embedding type.
Downsampled towers initialized.
Rank 0:  Model Class: LlavaLlamaForRecursion
Bilienar interpolation embedding type.
remove unpadding=True, change to 'spatial'
Bilienar interpolation embedding type.
Downsampled towers initialized.
…
