…
on_output.json', contrastive_alphas=[1.6, 2.0, 0.9], square=1, fix_grid='2x2', _device='cuda:0', use_noised_for_contrastive=False, cd_strategy='default')
Loading vision tower: openai/clip-vit-large-patch14-336
Loading checkpoint shards:   0%|          | 0/3 [00:00<?, ?it/s]Loading checkpoint shards:  33%|███▎      | 1/3 [00:03<00:07,  3.82s/it]Loading checkpoint shards:  67%|██████▋   | 2/3 [00:07<00:03,  4.00s/it]Loading checkpoint shards: 100%|██████████| 3/3 [00:11<00:00,  3.78s/it]Loading checkpoint shards: 100%|██████████| 3/3 [00:11<00:00,  3.82s/it]
LlavaLlamaModel(
  (embed_tokens): Embedding(32000, 4096, padding_idx=0)
  (layers): ModuleList(
    (0-31): 32 x LlamaDecoderLayer(
      (self_attn): LlamaAttention(
        (q_proj): Linear(in_features=4096, out_features=4096, bias=False)
        (k_proj): Linear(in_features=4096, out_features=4096, bias=False)
        (v_proj): Linear(in_features=4096, out_features=4096, bias=False)
        (o_proj): Linear(in_features=4096, out_features=4096, bias=False)
      )
      (mlp): LlamaMLP(
        (gate_proj): Linear(in_features=4096, out_features=11008, bias=False)
        (up_proj): Linear(in_features=4096, out_features=11008, bias=False)
        (down_proj): Linear(in_features=11008, out_features=4096, bias=False)
        (act_fn): SiLU()
      )
      (input_layernorm): LlamaRMSNorm((4096,), eps=1e-05)
      (post_attention_layernorm): LlamaRMSNorm((4096,), eps=1e-05)
    )
  )
  (norm): LlamaRMSNorm((4096,), eps=1e-05)
  (rotary_emb): LlamaRotaryEmbedding()
  (vision_tower): CLIPVisionTower(
    (vision_tower): CLIPVisionModel(
      (vision_model): CLIPVisionTransformer(
        (embeddings): CLIPVisionEmbeddings(
          (patch_embedding): Conv2d(3, 1024, kernel_size=(14, 14), stride=(14, 14), bias=False)
          (position_embedding): Embedding(577, 1024)
        )
        (pre_layrnorm): LayerNorm((1024,), eps=1e-05, elementwise_affine=True)
        (encoder): CLIPEncoder(
          (layers): ModuleList(
            (0-23): 24 x CLIPEncoderLayer(
              (self_attn): CLIPSdpaAttention(
                (k_proj): Linear(in_features=1024, out_features=1024, bias=True)
                (v_proj): Linear(in_features=1024, out_features=1024, bias=True)
                (q_proj): Linear(in_features=1024, out_features=1024, bias=True)
                (out_proj): Linear(in_features=1024, out_features=1024, bias=True)
              )
              (layer_norm1): LayerNorm((1024,), eps=1e-05, elementwise_affine=True)
              (mlp): CLIPMLP(
                (activation_fn): QuickGELUActivation()
                (fc1): Linear(in_features=1024, out_features=4096, bias=True)
                (fc2): Linear(in_features=4096, out_features=1024, bias=True)
              )
              (layer_norm2): LayerNorm((1024,), eps=1e-05, elementwise_affine=True)
            )
          )
        )
        (post_layernorm): LayerNorm((1024,), eps=1e-05, elementwise_affine=True)
      )
    )
  )
  (downsampled_vision_towers): ModuleDict()
  (vision_resampler): IdentityMap()
  (mm_projector): Sequential(
    (0): Linear(in_features=1024, out_features=4096, bias=True)
    (1): GELU(approximate='none')
    (2): Linear(in_features=4096, out_features=4096, bias=True)
  )
)
change positional embedding to bilinear_interpolation
Bilienar interpolation embedding type.
Bilienar interpolation embedding type.
Downsampled towers initialized.
Model Class: LlavaLlamaForRecursion
remove unpadding=True, change to 'spatial'
[32m2025-01-20 05:25:27.770[0m | [1mINFO    [0m | [36mlmms_eval.models.llava[0m:[36m__init__[0m:[36m297[0m - [1mUsing single device: cuda:0[0m
…
