…
2', _device='cuda:0', use_noised_for_contrastive=False, cd_strategy='default')
Loading vision tower: openai/clip-vit-large-patch14-336
Loading checkpoint shards:   0%|          | 0/4 [00:00<?, ?it/s]Loading checkpoint shards:  25%|██▌       | 1/4 [00:03<00:11,  3.85s/it]Loading checkpoint shards:  50%|█████     | 2/4 [00:07<00:07,  3.85s/it]Loading checkpoint shards:  75%|███████▌  | 3/4 [00:11<00:03,  3.84s/it]Loading checkpoint shards: 100%|██████████| 4/4 [00:11<00:00,  2.50s/it]Loading checkpoint shards: 100%|██████████| 4/4 [00:11<00:00,  2.99s/it]
LlavaMistralModel(
  (embed_tokens): Embedding(32000, 4096)
  (layers): ModuleList(
    (0-31): 32 x MistralDecoderLayer(
      (self_attn): MistralAttention(
        (q_proj): Linear(in_features=4096, out_features=4096, bias=False)
        (k_proj): Linear(in_features=4096, out_features=1024, bias=False)
        (v_proj): Linear(in_features=4096, out_features=1024, bias=False)
        (o_proj): Linear(in_features=4096, out_features=4096, bias=False)
      )
      (mlp): MistralMLP(
        (gate_proj): Linear(in_features=4096, out_features=14336, bias=False)
        (up_proj): Linear(in_features=4096, out_features=14336, bias=False)
        (down_proj): Linear(in_features=14336, out_features=4096, bias=False)
        (act_fn): SiLU()
      )
      (input_layernorm): MistralRMSNorm((4096,), eps=1e-05)
      (post_attention_layernorm): MistralRMSNorm((4096,), eps=1e-05)
    )
  )
  (norm): MistralRMSNorm((4096,), eps=1e-05)
  (rotary_emb): MistralRotaryEmbedding()
  (vision_tower): CLIPVisionTower(
    (vision_tower): CLIPVisionModel(
      (vision_model): CLIPVisionTransformer(
        (embeddings): CLIPVisionEmbeddings(
          (patch_embedding): Conv2d(3, 1024, kernel_size=(14, 14), stride=(14, 14), bias=False)
          (position_embedding): Embedding(577, 1024)
        )
        (pre_layrnorm): LayerNorm((1024,), eps=1e-05, elementwise_affine=True)
        (encoder): CLIPEncoder(
          (layers): ModuleList(
            (0-23): 24 x CLIPEncoderLayer(
              (self_attn): CLIPSdpaAttention(
                (k_proj): Linear(in_features=1024, out_features=1024, bias=True)
                (v_proj): Linear(in_features=1024, out_features=1024, bias=True)
                (q_proj): Linear(in_features=1024, out_features=1024, bias=True)
                (out_proj): Linear(in_features=1024, out_features=1024, bias=True)
              )
              (layer_norm1): LayerNorm((1024,), eps=1e-05, elementwise_affine=True)
              (mlp): CLIPMLP(
                (activation_fn): QuickGELUActivation()
                (fc1): Linear(in_features=1024, out_features=4096, bias=True)
                (fc2): Linear(in_features=4096, out_features=1024, bias=True)
              )
              (layer_norm2): LayerNorm((1024,), eps=1e-05, elementwise_affine=True)
            )
          )
        )
        (post_layernorm): LayerNorm((1024,), eps=1e-05, elementwise_affine=True)
      )
    )
  )
  (downsampled_vision_towers): ModuleDict()
  (vision_resampler): IdentityMap()
  (mm_projector): Sequential(
    (0): Linear(in_features=1024, out_features=4096, bias=True)
    (1): GELU(approximate='none')
    (2): Linear(in_features=4096, out_features=4096, bias=True)
  )
)
change positional embedding to bilinear_interpolation
Bilienar interpolation embedding type.
Bilienar interpolation embedding type.
Downsampled towers initialized.
Model Class: LlavaMistralForRecursion
remove unpadding=True, change to 'spatial'
[32m2025-01-22 08:50:11.240[0m | [1mINFO    [0m | [36mlmms_eval.models.llava[0m:[36m__init__[0m:[36m297[0m - [1mUsing single device: cuda:0[0m
…
